…
pyctc {0: 'â–in', 1: 'i', 2: 'en', 3: 'g', 4: 'n', 5: 'as', 6: 'ed', 7: '</s>', 8: 'z', 9: '_', 10: 'â–o', 11: 'm', 12: 'nd', 13: 'r', 14: 'in', 15: 'e', 16: 'a', 17: 'â–s', 18: 'is', 19: 'â–h', 20: 'â–th', 21: 'â–d', 22: 'ou', 23: 'f', 24: 'â–f', 25: 'â–he', 26: 'o', 27: 'he', 28: 'â–t', 29: 'â–p', 30: 'l', 31: 'at', 32: 'k', 33: 'â–n', 34: 'an', 35: 'u', 36: 's', 37: 'â–â‡â–', 38: 'â–l', 39: 'w', 40: 'es', 41: 'd', 42: 'â–w', 43: '<s>', 44: 'â–c', 45: 'it', 46: 'c', 47: 'â–i', 48: 'â–', 49: 'v', 50: 'j', 51: 'h', 52: 'er', 53: 'q', 54: 'â–b', 55: 'y', 56: 're', 57: 'p', 58: 'b', 59: 'â–to', 60: 'ar', 61: 'â–a', 62: 'ing', 63: 'or', 64: 't', 65: 'x', 66: 'â–of', 67: 'on', 68: 'â–and', 69: 'â–m', 70: 'll', 71: 'â–the', 72: ''}
TrialModel(
  (cnn): Conv2d(1, 32, kernel_size=(3, 3), stride=(2, 2), padding=(1, 1))
  (resconv): Sequential(
    (0): ConvBlock(
      (cnn1): Conv2d(32, 32, kernel_size=(3, 3), stride=(1, 1), padding=(1, 1))
      (cnn2): Conv2d(32, 32, kernel_size=(3, 3), stride=(1, 1), padding=(1, 1))
      (layer_norm1): Normalize()
      (layer_norm2): Normalize()
    )
    (1): ConvBlock(
      (cnn1): Conv2d(32, 32, kernel_size=(3, 3), stride=(1, 1), padding=(1, 1))
      (cnn2): Conv2d(32, 32, kernel_size=(3, 3), stride=(1, 1), padding=(1, 1))
      (layer_norm1): Normalize()
      (layer_norm2): Normalize()
    )
    (2): ConvBlock(
      (cnn1): Conv2d(32, 32, kernel_size=(3, 3), stride=(1, 1), padding=(1, 1))
      (cnn2): Conv2d(32, 32, kernel_size=(3, 3), stride=(1, 1), padding=(1, 1))
      (layer_norm1): Normalize()
      (layer_norm2): Normalize()
    )
  )
  (fc_1): Linear(in_features=2048, out_features=512, bias=True)
  (rnn): Sequential(
    (0): RNNBlock(
      (seq): Sequential(
        (0): LayerNorm((512,), eps=1e-05, elementwise_affine=True)
        (1): ReLU6()
        (2): GRU(512, 512, batch_first=True, bidirectional=True)
      )
    )
    (1): RNNBlock(
      (seq): Sequential(
        (0): LayerNorm((1024,), eps=1e-05, elementwise_affine=True)
        (1): ReLU6()
        (2): GRU(1024, 512, bidirectional=True)
      )
    )
    (2): RNNBlock(
      (seq): Sequential(
        (0): LayerNorm((1024,), eps=1e-05, elementwise_affine=True)
        (1): ReLU6()
        (2): GRU(1024, 512, bidirectional=True)
      )
    )
    (3): RNNBlock(
      (seq): Sequential(
        (0): LayerNorm((1024,), eps=1e-05, elementwise_affine=True)
        (1): ReLU6()
        (2): GRU(1024, 512, bidirectional=True)
      )
    )
    (4): RNNBlock(
      (seq): Sequential(
        (0): LayerNorm((1024,), eps=1e-05, elementwise_affine=True)
        (1): ReLU6()
        (2): GRU(1024, 512, bidirectional=True)
      )
    )
  )
  (fc_2): Linear(in_features=1024, out_features=512, bias=True)
  (out): Sequential(
    (0): Dropout(p=0.2, inplace=False)
    (1): ReLU6()
    (2): Linear(in_features=512, out_features=73, bias=True)
  )
)
Trainable parameters: 23727177