…
2022-10-17 02:31:25,876 - pyctcdecode.alphabet - INFO - CTC blank char '' not found, appending to end.
2022-10-17 02:31:25,879 - pyctcdecode.alphabet - INFO - Found <unk> in vocabulary, substituting with ▁⁇▁.
2022-10-17 02:31:28,781 - hw_asr.base.base_dataset - INFO - 92 (3.5%) records are longer then 20.0 seconds. Excluding them.
2022-10-17 02:31:28,791 - hw_asr.base.base_dataset - INFO - 334 (12.7%) records are longer then 200 characters. Excluding them.
2022-10-17 02:31:28,797 - hw_asr.base.base_dataset - INFO - Filtered 335(12.8%) records  from dataset
2022-10-17 02:31:32,668 - train - INFO - TrialModel(
  (cnn): Conv2d(1, 32, kernel_size=(3, 3), stride=(2, 2), padding=(1, 1))
  (resconv): Sequential(
    (0): ConvBlock(
      (cnn1): Conv2d(32, 32, kernel_size=(3, 3), stride=(1, 1), padding=(1, 1))
      (cnn2): Conv2d(32, 32, kernel_size=(3, 3), stride=(1, 1), padding=(1, 1))
      (layer_norm1): Normalize()
      (layer_norm2): Normalize()
    )
    (1): ConvBlock(
      (cnn1): Conv2d(32, 32, kernel_size=(3, 3), stride=(1, 1), padding=(1, 1))
      (cnn2): Conv2d(32, 32, kernel_size=(3, 3), stride=(1, 1), padding=(1, 1))
      (layer_norm1): Normalize()
      (layer_norm2): Normalize()
    )
    (2): ConvBlock(
      (cnn1): Conv2d(32, 32, kernel_size=(3, 3), stride=(1, 1), padding=(1, 1))
      (cnn2): Conv2d(32, 32, kernel_size=(3, 3), stride=(1, 1), padding=(1, 1))
      (layer_norm1): Normalize()
      (layer_norm2): Normalize()
    )
  )
  (fc_1): Linear(in_features=2048, out_features=512, bias=True)
  (rnn): Sequential(
    (0): RNNBlock(
      (seq): Sequential(
        (0): LayerNorm((512,), eps=1e-05, elementwise_affine=True)
        (1): ReLU6()
        (2): GRU(512, 512, batch_first=True, bidirectional=True)
      )
    )
    (1): RNNBlock(
      (seq): Sequential(
        (0): LayerNorm((1024,), eps=1e-05, elementwise_affine=True)
        (1): ReLU6()
        (2): GRU(1024, 512, bidirectional=True)
      )
    )
    (2): RNNBlock(
      (seq): Sequential(
        (0): LayerNorm((1024,), eps=1e-05, elementwise_affine=True)
        (1): ReLU6()
        (2): GRU(1024, 512, bidirectional=True)
      )
    )
    (3): RNNBlock(
      (seq): Sequential(
        (0): LayerNorm((1024,), eps=1e-05, elementwise_affine=True)
        (1): ReLU6()
        (2): GRU(1024, 512, bidirectional=True)
      )
    )
    (4): RNNBlock(
      (seq): Sequential(
        (0): LayerNorm((1024,), eps=1e-05, elementwise_affine=True)
        (1): ReLU6()
        (2): GRU(1024, 512, bidirectional=True)
      )
    )
  )
  (fc_2): Linear(in_features=1024, out_features=512, bias=True)
  (out): Sequential(
    (0): Dropout(p=0.2, inplace=False)
    (1): ReLU6()
    (2): Linear(in_features=512, out_features=73, bias=True)
  )
)
Trainable parameters: 23727177
2022-10-17 02:31:34,317 - wandb.jupyter - ERROR - Failed to detect the name of this notebook, you can set it manually with the WANDB_NOTEBOOK_NAME environment variable to enable code saving.
2022-10-17 03:09:23,283 - trainer - INFO -     epoch          : 1
2022-10-17 03:09:23,288 - trainer - INFO -     loss           : 1.3058108162879944
…
