…
    val_WER (ARG)  : 0.7039567875964392
    val_CER (ARG)  : 0.4215237589253938
    val_CER (BMS)  : 1.3380705317788686
    val_WER (BMS)  : 1.0010127654027026
Saving current best: model_best.pth ...
Using arpa instead of binary LM file, decoder instantiation might be slow.
Alphabet determined to be of BPE style.
CTC blank char '' not found, appending to end.
Found <unk> in vocabulary, substituting with ▁⁇▁.
92 (3.5%) records are longer then 20.0 seconds. Excluding them.
334 (12.7%) records are longer then 200 characters. Excluding them.
Filtered 335(12.8%) records  from dataset
TrialModel(
  (cnn): Conv2d(1, 32, kernel_size=(3, 3), stride=(2, 2), padding=(1, 1))
  (resconv): Sequential(
    (0): ConvBlock(
      (cnn1): Conv2d(32, 32, kernel_size=(3, 3), stride=(1, 1), padding=(1, 1))
      (cnn2): Conv2d(32, 32, kernel_size=(3, 3), stride=(1, 1), padding=(1, 1))
      (layer_norm1): Normalize()
      (layer_norm2): Normalize()
    )
    (1): ConvBlock(
      (cnn1): Conv2d(32, 32, kernel_size=(3, 3), stride=(1, 1), padding=(1, 1))
      (cnn2): Conv2d(32, 32, kernel_size=(3, 3), stride=(1, 1), padding=(1, 1))
      (layer_norm1): Normalize()
      (layer_norm2): Normalize()
    )
    (2): ConvBlock(
      (cnn1): Conv2d(32, 32, kernel_size=(3, 3), stride=(1, 1), padding=(1, 1))
      (cnn2): Conv2d(32, 32, kernel_size=(3, 3), stride=(1, 1), padding=(1, 1))
      (layer_norm1): Normalize()
      (layer_norm2): Normalize()
    )
  )
  (fc_1): Linear(in_features=2048, out_features=512, bias=True)
  (rnn): Sequential(
    (0): RNNBlock(
      (seq): Sequential(
        (0): LayerNorm((512,), eps=1e-05, elementwise_affine=True)
        (1): ReLU6()
        (2): GRU(512, 512, batch_first=True, bidirectional=True)
      )
    )
    (1): RNNBlock(
      (seq): Sequential(
        (0): LayerNorm((1024,), eps=1e-05, elementwise_affine=True)
        (1): ReLU6()
        (2): GRU(1024, 512, bidirectional=True)
      )
    )
    (2): RNNBlock(
      (seq): Sequential(
        (0): LayerNorm((1024,), eps=1e-05, elementwise_affine=True)
        (1): ReLU6()
        (2): GRU(1024, 512, bidirectional=True)
      )
    )
    (3): RNNBlock(
      (seq): Sequential(
        (0): LayerNorm((1024,), eps=1e-05, elementwise_affine=True)
        (1): ReLU6()
        (2): GRU(1024, 512, bidirectional=True)
      )
    )
    (4): RNNBlock(
      (seq): Sequential(
        (0): LayerNorm((1024,), eps=1e-05, elementwise_affine=True)
        (1): ReLU6()
        (2): GRU(1024, 512, bidirectional=True)
      )
    )
  )
  (fc_2): Linear(in_features=1024, out_features=512, bias=True)
  (out): Sequential(
    (0): Dropout(p=0.2, inplace=False)
    (1): ReLU6()
    (2): Linear(in_features=512, out_features=73, bias=True)
  )
)
Trainable parameters: 23727177
[34m[1mwandb[39m[22m: [33mWARNING[39m Calling wandb.login() after wandb.init() has no effect.